edwin/Multilevel_Wavelet_Decomposition_Network_Pytorch-master/model/model.pkl (torch_old, 36109 bytes, 26 tensors)

weight f8 [8, 8]
000000 92 cb 7f 48 bf 7d cd bf 1d c9 e5 3f a4 df e6 3f
       -0.2304 0.7148
000010 1c 7c 61 32 55 30 e4 bf 79 e9 26 31 08 ac 9c bf
       -0.6309 -0.028
000020 56 0e 2d b2 9d ef c7 3f d2 00 de 02 09 8a 9f 3f
       0.187 0.0308
000030 2a a9 13 d0 44 d8 a0 bf a1 67 b3 ea 73 b5 85 bf
       -0.0329 -0.0106
000040 f4 12 d1 09 d6 ab 42 3f 92 cb 7f 48 bf 7d cd bf
       0.0005698008641351325 -0.2304
000050 1d c9 e5 3f a4 df e6 3f 1c 7c 61 32 55 30 e4 bf
       0.7148 -0.6309
000060 79 e9 26 31 08 ac 9c bf 56 0e 2d b2 9d ef c7 3f
       -0.028 0.187
000070 d2 00 de 02 09 8a 9f 3f 2a a9 13 d0 44 d8 a0 bf
       0.0308 -0.0329
000080 22 bc cf 9f 1a 54 2c 3f 89 d0 4d 0f ac 76 59 3f
       0.000216129541427774 0.0015541725417423122
000090 92 cb 7f 48 bf 7d cd bf 1d c9 e5 3f a4 df e6 3f
       -0.2304 0.7148
0000a0 1c 7c 61 32 55 30 e4 bf 79 e9 26 31 08 ac 9c bf
       -0.6309 -0.028
0000b0 56 0e 2d b2 9d ef c7 3f d2 00 de 02 09 8a 9f 3f
       0.187 0.0308
0000c0 b0 7a 26 c7 41 60 5d bf ee 79 de 2b 36 ae 4e 3f
       -0.0017929689753157056 0.000936294985638684
0000d0 3a 3d 35 a7 24 b1 4a 3f 92 cb 7f 48 bf 7d cd bf
       0.0008145741434563488 -0.2304
0000e0 1d c9 e5 3f a4 df e6 3f 1c 7c 61 32 55 30 e4 bf
       0.7148 -0.6309
0000f0 79 e9 26 31 08 ac 9c bf 56 0e 2d b2 9d ef c7 3f
       -0.028 0.187
000100 e8 0b d3 71 ca 48 06 3f b2 53 e9 55 22 bc 36 3f
       4.2504003638941916e-05 0.0003469070269706511
000110 82 aa 73 a9 d4 94 4d 3f f2 b8 65 d4 76 58 2f bf
       0.0009027517689024908 -0.0002391476684339765
000120 92 cb 7f 48 bf 7d cd bf 1d c9 e5 3f a4 df e6 3f
       -0.2304 0.7148
000130 1c 7c 61 32 55 30 e4 bf 79 e9 26 31 08 ac 9c bf
       -0.6309 -0.028
000140 20 ee 92 3b 7c 7b 39 bf 17 1f 39 ad ee 55 58 bf
       -0.0003888300230518744 -0.0014853316141784695
000150 5b 15 f0 02 3c 7d 42 3f 07 f4 25 0b c4 98 54 bf
       0.0005642455124649602 -0.0012571253288051769
000160 58 4c e4 a3 da ed 64 bf 92 cb 7f 48 bf 7d cd bf
       -0.0025548239056063897 -0.2304
000170 1d c9 e5 3f a4 df e6 3f 1c 7c 61 32 55 30 e4 bf
       0.7148 -0.6309
000180 e5 a2 4a 8e fc b9 45 3f 8a e7 e3 6c 23 23 36 bf
       0.0006630404646631142 -0.0003377877700497736
000190 9a 42 84 13 d0 b5 f7 3e b4 9b f7 72 3e 71 45 bf
       2.261181472912547e-05 -0.0006543688704682056
0001a0 31 a8 de de 39 2c 2a 3f 85 c3 bd 10 12 8e 62 bf
       0.0001996822970203329 -0.002265010150886262
0001b0 92 cb 7f 48 bf 7d cd bf 1d c9 e5 3f a4 df e6 3f
       -0.2304 0.7148
0001c0 86 9a fd b5 4c 12 2e bf 85 34 3b 73 c3 21 5c bf
       -0.00022942720806469838 -0.0017170342152213202
0001d0 ff a4 de 90 8a 1c 5b 3f 7e f9 c5 8e 82 ac 47 3f
       0.0016547539885130578 0.0007224690903482737
0001e0 01 e6 a7 23 2b 98 52 3f 66 c1 22 52 ce c5 55 bf
       0.0011349126131093847 -0.0013288988925915456
0001f0 5d c7 a1 9b 75 c1 24 3f 92 cb 7f 48 bf 7d cd bf
       0.00015835343021169515 -0.2304

bias f8 [8]
000000 00 00 00 80 a8 15 c0 bf 00 00 00 00 07 e5 b0 bf
       -0.1256609559059143 -0.06599467992782593
000010 00 00 00 a0 84 18 d5 bf 00 00 00 80 45 dd c2 bf
       -0.32962146401405334 -0.14737766981124878
000020 00 00 00 40 15 84 d4 bf 00 00 00 80 da 13 c6 bf
       -0.3205617070198059 -0.17248088121414185
000030 00 00 00 40 16 99 cb 3f 00 00 00 e0 c0 19 d5 bf
       0.2156093418598175 -0.3296968638896942

weight f8 [8, 8]
000000 bb 0f 7a e0 72 6d c5 bf da 8d 39 16 e6 ff b3 bf
       -0.16740261040479062 -0.07812345545385516
000010 d7 f4 85 ba 7a 3c b1 bf fc 7e fa ba 4d 8c d2 bf
       -0.06732909253874496 -0.28981345424288896
000020 6d 7b ac f3 61 66 bc bf 0f f4 10 03 08 2b df 3f
       -0.1109372348696362 0.4870014219230265
000030 aa df 41 e7 d1 a8 e1 3f 65 91 4f 6c 26 21 d2 3f
       0.5518579022163881 0.2832733209345604
000040 d2 85 41 72 ec 52 bd bf 8a fd 9a 58 8f a7 bb bf
       -0.11454656400157795 -0.10802551186769996
000050 0e 02 77 dc 01 7d af bf 20 d5 3a 8c 5f 54 b3 bf
       -0.061500604784218024 -0.07550618337230164
000060 da 1b 94 a1 fc bf d0 bf 89 27 9b 2e fa a9 c7 bf
       -0.26171794680743476 -0.18487479472815618
000070 4f c9 df 13 64 ac e0 3f 54 f8 bf 97 23 a3 ed 3f
       0.5210438144843382 0.9261644328942205
000080 8a d9 74 17 2f 15 bf bf 25 b1 54 a8 18 05 c0 bf
       -0.12141699144999599 -0.12515552729872428
000090 a1 4c 23 59 62 db c0 bf 8e a8 12 b6 b2 f5 b4 bf
       -0.13169507362781466 -0.0818740553392294
0000a0 51 1b 5e 23 f3 02 b8 bf 92 36 66 bf 09 5f cf bf
       -0.0937950097414675 -0.2450878319327115
0000b0 e9 c2 96 c3 e3 d6 ba bf 1a 66 fb 28 da ae d1 3f
       -0.10484145665283119 0.27629713060523076
0000c0 5e 5f da 70 66 ba b0 bf 7d 18 e2 c0 f6 a6 ae bf
       -0.06534424071503284 -0.059867583318053065
0000d0 ad 63 6f d6 04 e1 a9 bf 6c c3 9d 91 85 45 a7 bf
       -0.05054488294235369 -0.04545228388349795
0000e0 90 bb f7 d2 25 4a 92 bf e1 91 5f a7 32 de aa 3f
       -0.0178609762205571 0.05247648518687576
0000f0 f2 bb a6 af 80 3a c5 bf 96 f8 64 00 63 7d d2 bf
       -0.16584786011432545 -0.28890299833791155
000100 32 cc d9 1e 4c 39 b2 bf c5 2f 7e 82 1f 87 ae bf
       -0.07118678811257054 -0.05962465732508763
000110 e0 77 98 1b dd e6 a8 bf 57 92 33 50 a7 9e a1 bf
       -0.04863635026798341 -0.03441355566045406
000120 3c fc e8 1a 56 37 af bf 4a ee 3e 80 27 ce a9 3f
       -0.0609690578316919 0.050400957493789436
000130 b9 44 29 f5 20 2a a5 3f e0 09 0d 20 a3 19 de bf
       0.04133704178514947 -0.4703147709844
000140 65 09 cc df 2f 6f b6 bf 28 d3 e2 a6 8d 7b b5 bf
       -0.08763407911104577 -0.08391652416578366
000150 d5 26 42 90 9f d5 b3 bf af c0 b9 09 6e b8 b0 bf
       -0.07747838279660908 -0.06531417596284216
000160 fc 61 56 62 15 df b3 bf 5a 0f 66 de 78 1c 96 bf
       -0.07762273455444552 -0.021592987608087234
000170 94 3a ea 53 95 e1 96 3f e3 1f 1d 4b 7f 90 cd bf
       0.022344907042276832 -0.23097220580734676
000180 9d 2b c2 c2 5f 81 c6 3f 69 de 0f 28 d0 10 b0 3f
       0.1758231831521159 0.06275654771877161
000190 99 8d 9d 78 c1 8a a0 3f d7 cb 0c a2 7a 75 ba 3f
       0.032308622335018806 0.10335508781717749
0001a0 b4 91 f5 e2 82 70 ba 3f c8 b0 50 0b 63 67 99 3f
       0.10327928582189011 0.024808452191948743
0001b0 28 d0 65 f7 d7 b2 91 3f 1a ad 54 c4 b9 c6 db 3f
       0.017283796763379794 0.43400425122190855
0001c0 22 31 dd c3 e0 70 c4 3f ef 14 9f 13 e6 e2 ad 3f
       0.15969476283715617 0.0583717249824448
0001d0 70 ac 7c 21 a2 3b a2 3f 65 84 4e 73 ef 6d b8 3f
       0.03561121615197116 0.09542748036484879
0001e0 86 9f b2 c4 c7 2a b9 3f 43 0c 21 31 cc c3 9a 3f
       0.09830902626219826 0.026137533663370027
0001f0 d5 79 e6 33 0b 64 9c 3f 2d 00 29 8d 4f f6 d6 3f
       0.027725386660330493 0.3587836149708917

bias f8 [8]
000000 24 55 9b 27 cb 98 ec 3f 23 20 82 04 d8 01 e0 3f
       0.8936515592164693 0.5002250755360403
000010 20 2c f5 3c 02 25 ed bf b5 30 9b 3f 63 b1 e0 bf
       -0.9107676687793891 -0.5216537706669643
000020 7c f2 19 72 f8 32 dd bf 9c 8a 07 56 ff b2 e5 bf
       -0.4562359918852861 -0.6781002693426958
000030 51 89 56 9c 88 96 a0 3f 3c 21 de 7e c1 0a c0 3f
       0.03239848049567463 0.1253282422515073

weight f8 [4, 4]
000000 92 cb 7f 48 bf 7d cd bf 1d c9 e5 3f a4 df e6 3f
       -0.2304 0.7148
000010 1c 7c 61 32 55 30 e4 bf 79 e9 26 31 08 ac 9c bf
       -0.6309 -0.028
000020 a9 55 45 8c 3c 20 20 bf 92 cb 7f 48 bf 7d cd bf
       -0.000123031035523508 -0.2304
000030 1d c9 e5 3f a4 df e6 3f 1c 7c 61 32 55 30 e4 bf
       0.7148 -0.6309
000040 94 de 15 b3 83 1e 4b 3f bc af 24 66 fa c5 52 bf
       0.0008276122154446557 -0.001145834474821846
000050 92 cb 7f 48 bf 7d cd bf 1d c9 e5 3f a4 df e6 3f
       -0.2304 0.7148
000060 53 59 2d 4f 19 c8 32 bf 47 43 50 a0 04 c9 2e 3f
       -0.00028658502485736265 0.00023487264130086558
000070 bf be 81 87 34 79 40 bf 92 cb 7f 48 bf 7d cd bf
       -0.0005027300349080484 -0.2304

bias f8 [4]
000000 00 00 00 00 ce 1a b7 bf 00 00 00 80 c6 ac dc bf
       -0.09025275707244873 -0.44804537296295166
000010 00 00 00 80 50 ca cd 3f 00 00 00 00 4d 64 ca 3f
       0.23273664712905884 0.2061859369277954

weight f8 [4, 4]
000000 f9 6e 27 14 5e 9b f0 bf 2b 49 f2 e5 93 c9 f0 3f
       -1.037931517340381 1.0492133123667127
000010 2a 59 66 f2 8f a8 f0 3f 4e 0e bd 4b 19 2f f0 bf
       1.041152903436862 -1.0114987333808076
000020 fa ea 95 2b e0 eb f0 bf 3b 7b 7f a2 9d 83 f0 3f
       -1.05758683229095 1.0321327540948022
000030 90 1f 05 ce d7 15 f1 3f 18 55 ec 90 c2 94 ea bf
       1.0678327605873825 -0.8306591825991374
000040 e9 3b ca 66 e8 64 f0 bf 90 13 f3 a3 43 35 f1 3f
       -1.024635697863909 1.0755039600637453
000050 65 f6 89 78 86 b9 f0 3f 49 62 71 7f a3 98 e8 bf
       1.0452942570258525 -0.7686326493376977
000060 d4 8b 44 a9 67 74 f0 bf 1f f8 0a ec 52 00 f1 3f
       -1.0284191715261288 1.062579080622079
000070 de ae fa ee 03 b9 f0 3f 87 ea 11 d7 c0 7b ea bf
       1.045169766914959 -0.827606601770939

bias f8 [4]
000000 46 ec c3 58 d8 c0 6e 3f 7c a8 56 5b 15 b2 8a bf
       0.003754065086579969 -0.013034979677133622
000010 30 b3 83 b3 29 b0 c4 bf b4 b6 13 39 7f 60 50 bf
       -0.16162606492380283 -0.0009995691692056665

weight_ih_l0 f8 [32, 1]
000000 00 00 00 e0 e0 4c c4 bf 00 00 00 20 87 41 d4 3f
       -0.15859614312648773 0.3164995014667511
000010 00 00 00 00 6f 0c b9 bf 00 00 00 a0 dd 9d d2 bf
       -0.09784597158432007 -0.2908853590488434
000020 00 00 00 00 15 c0 b3 bf 00 00 00 20 5d 39 d1 3f
       -0.07714968919754028 0.26912620663642883
000030 00 00 00 e0 c9 67 d4 bf 00 00 00 60 00 2f d3 bf
       -0.31883475184440613 -0.29974374175071716
000040 00 00 00 80 32 55 b9 bf 00 00 00 00 5c c6 81 bf
       -0.09895625710487366 -0.008679121732711792
000050 00 00 00 20 13 2e d6 3f 00 00 00 00 0a 9b a6 bf
       0.3465621769428253 -0.04415160417556763
000060 00 00 00 00 25 4c ae 3f 00 00 00 e0 bb e6 c0 bf
       0.059174686670303345 -0.13204143941402435
000070 00 00 00 c0 14 2e cf 3f 00 00 00 60 86 ee c6 bf
       0.24359378218650818 -0.1791542023420334
000080 00 00 00 40 8a 23 cd 3f 00 00 00 a0 9a 7b d4 3f
       0.2276470959186554 0.3200441896915436
000090 00 00 00 00 16 07 9b 3f 00 00 00 00 46 b7 b4 bf
       0.02639421820640564 -0.08092153072357178
0000a0 00 00 00 a0 c6 67 c4 bf 00 00 00 00 7a ca b7 bf
       -0.15941698849201202 -0.0929332971572876
0000b0 00 00 00 c0 b7 74 cb 3f 00 00 00 c0 af 9c c8 3f
       0.21449944376945496 0.19228169322013855
0000c0 00 00 00 00 70 07 a4 3f 00 00 00 c0 8c ed d4 bf
       0.03911924362182617 -0.32699888944625854
0000d0 00 00 00 00 40 89 b2 3f 00 00 00 c0 8a f3 c9 3f
       0.07240676879882812 0.20274481177330017
0000e0 00 00 00 a0 b9 fd c2 bf 00 00 00 00 49 a1 ba bf
       -0.14836807548999786 -0.1040235161781311
0000f0 00 00 00 80 76 d8 be 3f 00 00 00 00 a9 e4 a8 3f
       0.12049046158790588 0.04861953854560852

weight_hh_l0 f8 [32, 8]
000000 00 00 00 00 4c d2 98 bf 00 00 00 40 19 99 cb 3f
       -0.024239718914031982 0.21560969948768616
000010 00 00 00 a0 7c 24 c1 bf 00 00 00 00 34 31 9a 3f
       -0.13392598927021027 0.025578320026397705
000020 00 00 00 20 08 e2 d3 3f 00 00 00 40 ff 42 ce bf
       0.3106708824634552 -0.23641958832740784
000030 00 00 00 00 eb 02 ae 3f 00 00 00 00 b1 62 a3 3f
       0.05861601233482361 0.03786233067512512
000040 00 00 00 c0 12 a1 c6 bf 00 00 00 40 93 d9 ba bf
       -0.17679056525230408 -0.10488243401050568
000050 00 00 00 40 14 b8 d1 bf 00 00 00 e0 23 1e c9 bf
       -0.2768602967262268 -0.19623230397701263
000060 00 00 00 c0 87 09 ce bf 00 00 00 40 32 f9 d1 bf
       -0.23466584086418152 -0.28083473443984985
000070 00 00 00 e0 59 d3 d2 3f 00 00 00 40 6d c1 cb 3f
       0.29414984583854675 0.21684041619300842
000080 00 00 00 00 c4 a8 d3 bf 00 00 00 60 cd 71 d5 bf
       -0.3071756362915039 -0.335070937871933
000090 00 00 00 60 0b c3 d4 3f 00 00 00 60 65 39 d1 3f
       0.3244045674800873 0.2691281735897064
0000a0 00 00 00 c0 25 43 ca 3f 00 00 00 e0 c2 d6 c8 bf
       0.20517417788505554 -0.1940539926290512
0000b0 00 00 00 00 30 91 68 3f 00 00 00 00 0e 85 d1 bf
       0.002998918294906616 -0.2737460136413574
0000c0 00 00 00 00 f2 85 97 3f 00 00 00 00 2b 17 a0 bf
       0.022971898317337036 -0.03142675757408142
0000d0 00 00 00 00 5c 4b a9 bf 00 00 00 00 1d 0c cf bf
       -0.04940307140350342 -0.24255716800689697
0000e0 00 00 00 00 2c 82 81 3f 00 00 00 00 ef ba ad bf
       0.00854906439781189 -0.05806681513786316
0000f0 00 00 00 e0 c4 2a d0 3f 00 00 00 20 ba 0a d2 3f
       0.2526104152202606 0.2819047272205353
000100 00 00 00 80 5d 42 b5 bf 00 00 00 40 dd b6 bf bf
       -0.0830439031124115 -0.12388403713703156
000110 00 00 00 c0 db 0e cd 3f 00 00 00 c0 ea 56 cc 3f
       0.22701594233512878 0.22140249609947205
000120 00 00 00 c0 63 0b cd 3f 00 00 00 40 41 a4 c9 3f
       0.2269100844860077 0.2003251612186432
000130 00 00 00 00 b6 46 9c 3f 00 00 00 c0 08 bb d0 bf
       0.02761349081993103 -0.26141566038131714
000140 00 00 00 80 f0 c3 b8 3f 00 00 00 00 7f 00 c6 bf
       0.09673979878425598 -0.17189013957977295
000150 00 00 00 20 d4 44 ca bf 00 00 00 20 56 3e cc bf
       -0.20522548258304596 -0.22065235674381256
000160 00 00 00 40 5b 8a c5 3f 00 00 00 00 0f 3b ba bf
       0.1682848036289215 -0.10246366262435913
000170 00 00 00 a0 a9 b7 d1 3f 00 00 00 40 f2 2b c4 3f
       0.2768348753452301 0.15759113430976868
000180 00 00 00 c0 d4 b6 d0 bf 00 00 00 60 10 a6 c0 bf
       -0.26115912199020386 -0.1300678700208664
000190 00 00 00 80 57 27 d0 bf 00 00 00 c0 89 77 d3 bf
       -0.2524012327194214 -0.30417102575302124
0001a0 00 00 00 00 94 33 ad 3f 00 00 00 e0 cf 0c d2 3f
       0.05703413486480713 0.28203198313713074
0001b0 00 00 00 e0 29 78 c8 bf 00 00 00 00 15 18 b8 bf
       -0.19116710126399994 -0.09411746263504028
0001c0 00 00 00 00 a7 8f ba 3f 00 00 00 40 84 0b c9 bf
       0.10375446081161499 -0.1956639587879181
0001d0 00 00 00 80 92 37 c2 bf 00 00 00 40 dd 14 cb 3f
       -0.1423209309577942 0.2115742266178131
0001e0 00 00 00 60 88 0d d4 3f 00 00 00 00 27 e6 a7 3f
       0.313325971364975 0.04667779803276062
0001f0 00 00 00 00 23 e9 b9 3f 00 00 00 80 c4 0d d1 bf
       0.10121363401412964 -0.26646530628204346
000200 00 00 00 00 3f f5 a7 bf 00 00 00 00 d3 c7 b2 3f
       -0.046792954206466675 0.07336157560348511
000210 00 00 00 e0 02 95 c2 bf 00 00 00 80 ec 73 d6 bf
       -0.14517246186733246 -0.3508254289627075
000220 00 00 00 40 80 e3 ca 3f 00 00 00 00 4a e6 97 bf
       0.2100677788257599 -0.023339420557022095
000230 00 00 00 40 16 ae ce 3f 00 00 00 c0 ab 2e c6 bf
       0.2396877110004425 -0.17329928278923035
000240 00 00 00 00 3c 0a 81 bf 00 00 00 80 13 b7 ba bf
       -0.00832030177116394 -0.10435602068901062
000250 00 00 00 00 49 22 b0 3f 00 00 00 20 53 fc cc bf
       0.0630231499671936 -0.2264503389596939
000260 00 00 00 80 18 11 b6 3f 00 00 00 00 5e f2 d2 bf
       0.0861983597278595 -0.29604291915893555
000270 00 00 00 80 17 de d3 bf 00 00 00 00 db 75 a1 3f
       -0.3104304075241089 0.034102290868759155
000280 00 00 00 a0 ce 38 d1 bf 00 00 00 40 28 40 cf 3f
       -0.26909223198890686 0.24414542317390442
000290 00 00 00 00 74 6f aa 3f 00 00 00 00 be 9d b4 bf
       0.05163156986236572 -0.08053195476531982
0002a0 00 00 00 40 78 bb c8 bf 00 00 00 60 94 3d d0 3f
       -0.19322112202644348 0.2537585198879242
0002b0 00 00 00 00 91 0d b8 bf 00 00 00 00 3c 73 ab bf
       -0.09395700693130493 -0.05361354351043701
0002c0 00 00 00 80 7b ae d5 bf 00 00 00 80 65 f0 bf 3f
       -0.33877456188201904 0.1247619092464447
0002d0 00 00 00 40 b6 6c d6 bf 00 00 00 60 9e 3f d2 3f
       -0.35038524866104126 0.2851329743862152
0002e0 00 00 00 00 c0 ea 72 3f 00 00 00 20 29 c3 d2 bf
       0.004618406295776367 -0.29316166043281555
0002f0 00 00 00 80 e9 24 d1 bf 00 00 00 00 2a 95 b3 bf
       -0.2678779363632202 -0.07649481296539307
000300 00 00 00 c0 f9 42 cf 3f 00 00 00 80 b2 6a bc 3f
       0.2442314326763153 0.11100307106971741
000310 00 00 00 80 77 9a bb 3f 00 00 00 40 4a 4b c9 bf
       0.10782572627067566 -0.19761016964912415
000320 00 00 00 40 e8 5e d3 bf 00 00 00 00 0e 38 ab 3f
       -0.30266767740249634 0.05316203832626343
000330 00 00 00 40 df ba c3 bf 00 00 00 c0 35 40 c7 3f
       -0.1541403830051422 0.18164703249931335
000340 00 00 00 00 30 60 99 bf 00 00 00 a0 d8 1b cd bf
       -0.024780988693237305 -0.22741229832172394
000350 00 00 00 40 7e cd ba bf 00 00 00 00 78 40 71 bf
       -0.1046980768442154 -0.004211872816085815
000360 00 00 00 00 5b d0 ab 3f 00 00 00 00 dc d4 c7 bf
       0.05432400107383728 -0.18618345260620117
000370 00 00 00 60 d7 33 d3 bf 00 00 00 c0 58 b9 c0 3f
       -0.300039142370224 0.13065633177757263
000380 00 00 00 60 9e e2 d0 3f 00 00 00 20 5f e7 d1 3f
       0.2638317048549652 0.27974680066108704
000390 00 00 00 00 de ba d1 bf 00 00 00 00 cf fd b9 bf
       -0.27703046798706055 -0.101529061794281
0003a0 00 00 00 c0 c1 4d cb 3f 00 00 00 a0 83 3b d3 bf
       0.21331045031547546 -0.30050745606422424
0003b0 00 00 00 80 56 ed cf bf 00 00 00 00 22 50 9e bf
       -0.24943047761917114 -0.02960255742073059
0003c0 00 00 00 20 f7 c4 d5 3f 00 00 00 e0 fe 6d cb bf
       0.3401468098163605 -0.21429429948329926
0003d0 00 00 00 40 e3 a5 c4 3f 00 00 00 40 5c a2 ca 3f
       0.16131249070167542 0.20807984471321106
0003e0 00 00 00 80 f2 11 bc bf 00 00 00 00 42 22 ab bf
       -0.10964885354042053 -0.05299574136734009
0003f0 00 00 00 00 09 3c ab 3f 00 00 00 a0 65 38 d2 3f
       0.05319240689277649 0.2846921980381012
000400 00 00 00 40 27 b4 c4 3f 00 00 00 00 5e a2 af 3f
       0.16174784302711487 0.06178563833236694
000410 00 00 00 20 0e c7 d4 bf 00 00 00 80 49 1e be bf
       -0.3246493637561798 -0.11764964461326599
000420 00 00 00 40 87 8b cc 3f 00 00 00 20 0e 67 d2 3f
       0.22300806641578674 0.2875399887561798
000430 00 00 00 80 ca a8 b1 bf 00 00 00 c0 2d 8b d1 bf
       -0.06898179650306702 -0.2741197943687439
000440 00 00 00 80 10 20 d1 bf 00 00 00 00 64 28 a8 3f
       -0.2675820589065552 0.04718315601348877
000450 00 00 00 00 76 29 b1 bf 00 00 00 40 bb 0a c8 3f
       -0.067038893699646 0.18782749772071838
000460 00 00 00 e0 dd 0a d4 3f 00 00 00 00 60 fe 6a 3f
       0.31316325068473816 0.00329512357711792
000470 00 00 00 00 9c d8 9b bf 00 00 00 40 eb 46 ce 3f
       -0.02719348669052124 0.23653927445411682
000480 00 00 00 00 a0 66 88 bf 00 00 00 40 c1 da c2 bf
       -0.011914491653442383 -0.1473008692264557
000490 00 00 00 80 d0 82 b3 bf 00 00 00 00 c2 2a 99 3f
       -0.07621482014656067 0.024577170610427856
0004a0 00 00 00 80 26 a2 bb bf 00 00 00 80 24 7f b7 bf
       -0.10794296860694885 -0.0917837917804718
0004b0 00 00 00 c0 fa 5f c3 bf 00 00 00 00 26 97 ca bf
       -0.15136656165122986 -0.20773768424987793
0004c0 00 00 00 00 79 72 bd 3f 00 00 00 00 d6 8b b3 3f
       0.11502796411514282 0.07635247707366943
0004d0 00 00 00 60 25 95 d2 3f 00 00 00 e0 6b 0c c4 bf
       0.2903531491756439 -0.1566290706396103
0004e0 00 00 00 00 92 39 94 3f 00 00 00 a0 1d 3c d5 3f
       0.019750863313674927 0.3317941725254059
0004f0 00 00 00 e0 b1 07 d4 3f 00 00 00 40 9d a2 cc 3f
       0.3129696547985077 0.22371259331703186
000500 00 00 00 c0 e7 38 d6 bf 00 00 00 a0 dd ac d1 3f
       -0.3472232222557068 0.2761758863925934
000510 00 00 00 60 e2 05 d5 bf 00 00 00 00 58 72 93 bf
       -0.3284841477870941 -0.01899087429046631
000520 00 00 00 40 03 46 c6 3f 00 00 00 40 4c cb cc 3f
       0.17401161789894104 0.22495415806770325
000530 00 00 00 e0 46 0d d0 3f 00 00 00 60 54 5d c4 bf
       0.2508103549480438 -0.15909819304943085
000540 00 00 00 00 e8 27 89 bf 00 00 00 a0 cb 0e d1 3f
       -0.012283146381378174 0.26652804017066956
000550 00 00 00 00 9c 24 96 bf 00 00 00 20 6c 8f d6 bf
       -0.02162402868270874 -0.35250380635261536
000560 00 00 00 00 ae 6a 9a 3f 00 00 00 00 18 2b c0 bf
       0.02579757571220398 -0.12631511688232422
000570 00 00 00 00 cf c2 cc bf 00 00 00 20 13 f2 d0 3f
       -0.224695086479187 0.2647750675678253
000580 00 00 00 20 52 21 c9 bf 00 00 00 00 01 f0 c7 bf
       -0.19632937014102936 -0.18701183795928955
000590 00 00 00 60 62 78 d1 3f 00 00 00 60 00 68 d1 3f
       0.2729726731777191 0.27197274565696716
0005a0 00 00 00 40 fd b3 cd 3f 00 00 00 c0 d7 40 c9 3f
       0.23205533623695374 0.19729134440422058
0005b0 00 00 00 40 ba ea c4 3f 00 00 00 00 0f 6c a4 3f
       0.16341331601142883 0.039886921644210815
0005c0 00 00 00 20 ae 32 d4 3f 00 00 00 c0 9f 10 d4 bf
       0.31559327244758606 -0.3135146498680115
0005d0 00 00 00 00 dd 93 a3 3f 00 00 00 80 4e f0 d5 bf
       0.03823748230934143 -0.3427921533584595
0005e0 00 00 00 00 e0 50 5c bf 00 00 00 00 65 0a a3 bf
       -0.0017282664775848389 -0.03718867897987366
0005f0 00 00 00 c0 49 81 c2 3f 00 00 00 40 2a f5 d2 bf
       0.14457055926322937 -0.29621368646621704
000600 00 00 00 00 60 b8 73 bf 00 00 00 a0 71 34 d6 bf
       -0.004814505577087402 -0.3469509184360504
000610 00 00 00 80 df 36 c1 bf 00 00 00 80 b2 0f b5 bf
       -0.1344870924949646 -0.08227077126502991
000620 00 00 00 00 52 7d b4 3f 00 00 00 80 25 56 b8 bf
       0.08003723621368408 -0.09506449103355408
000630 00 00 00 20 29 2a d2 bf 00 00 00 20 3a 22 d5 3f
       -0.28382328152656555 0.3302140533924103
000640 00 00 00 00 33 72 ad 3f 00 00 00 40 5b 98 c5 3f
       0.05751189589500427 0.1687120497226715
000650 00 00 00 00 48 ad 7a 3f 00 00 00 40 8e 81 d1 bf
       0.0065129101276397705 -0.2735324501991272
000660 00 00 00 00 b2 6b a9 bf 00 00 00 80 2d 20 b1 3f
       -0.04964977502822876 0.06689724326133728
000670 00 00 00 c0 fe 06 c6 3f 00 00 00 40 ef 14 cf bf
       0.17208847403526306 -0.24282637238502502
000680 00 00 00 00 7e 50 c2 3f 00 00 00 00 ae f4 b2 bf
       0.1430814266204834 -0.07404601573944092
000690 00 00 00 a0 7e e0 cc bf 00 00 00 80 c7 f8 b4 bf
       -0.22560103237628937 -0.08192107081413269
0006a0 00 00 00 80 15 89 be 3f 00 00 00 00 91 b4 b5 3f
       0.11927923560142517 0.08478647470474243
0006b0 00 00 00 00 08 74 d3 bf 00 00 00 40 62 12 d5 bf
       -0.3039569854736328 -0.32924705743789673
0006c0 00 00 00 00 44 d0 93 bf 00 00 00 20 7b 88 d2 3f
       -0.01934915781021118 0.2895801365375519
0006d0 00 00 00 80 7f 41 be 3f 00 00 00 80 d5 b9 c6 bf
       0.11818692088127136 -0.1775462031364441
0006e0 00 00 00 40 d1 42 ca 3f 00 00 00 c0 98 ea cd 3f
       0.2051641047000885 0.23372182250022888
0006f0 00 00 00 00 fc 55 8c 3f 00 00 00 40 72 c8 c4 3f
       0.013835877180099487 0.16236713528633118
000700 00 00 00 00 67 9b a5 bf 00 00 00 80 84 2f b9 3f
       -0.04220125079154968 0.09838131070137024
000710 00 00 00 00 76 a5 93 3f 00 00 00 00 67 7a b8 3f
       0.019185870885849 0.09561771154403687
000720 00 00 00 60 3b b6 ca bf 00 00 00 c0 fe db d5 bf
       -0.20868627727031708 -0.3415524363517761
000730 00 00 00 40 32 b6 c0 bf 00 00 00 40 b3 04 c8 3f
       -0.13056018948554993 0.18764343857765198
000740 00 00 00 40 d2 96 cc 3f 00 00 00 20 bd 21 cb bf
       0.22335270047187805 -0.2119671255350113
000750 00 00 00 c0 7f 43 c9 3f 00 00 00 80 38 21 b8 bf
       0.1973724067211151 -0.09425690770149231
000760 00 00 00 00 a6 0c 91 3f 00 00 00 20 21 4a c7 bf
       0.01664981245994568 -0.18194974958896637
000770 00 00 00 80 8a c2 d3 bf 00 00 00 c0 18 8d cc 3f
       -0.30874884128570557 0.22305592894554138
000780 00 00 00 00 e1 1c be 3f 00 00 00 20 6f 98 cf bf
       0.11762815713882446 -0.24683941900730133
000790 00 00 00 40 1d 71 c2 bf 00 00 00 40 51 f4 ce 3f
       -0.14407697319984436 0.241830974817276
0007a0 00 00 00 a0 77 2f d6 3f 00 00 00 40 52 6f c9 3f
       0.346647173166275 0.19870975613594055
0007b0 00 00 00 40 1e b2 ce 3f 00 00 00 00 98 dc ad 3f
       0.2398107349872589 0.05832362174987793
0007c0 00 00 00 60 15 68 d0 3f 00 00 00 20 d5 61 d0 3f
       0.2563527524471283 0.255971223115921
0007d0 00 00 00 00 ad 57 ab bf 00 00 00 e0 36 12 c8 bf
       -0.05340328812599182 -0.1880558580160141
0007e0 00 00 00 e0 19 d5 d0 bf 00 00 00 c0 e2 ec bc bf
       -0.26300665736198425 -0.11298958957195282
0007f0 00 00 00 20 f5 91 d3 3f 00 00 00 80 2f 6f b0 bf
       0.30578354001045227 -0.06419655680656433

bias_ih_l0 f8 [32]
000000 00 00 00 a0 36 55 d6 3f 00 00 00 80 31 60 c1 bf
       0.3489510118961334 -0.13574808835983276
000010 00 00 00 80 18 95 c8 bf 00 00 00 a0 c8 f8 c8 bf
       -0.192050039768219 -0.19509227573871613
000020 00 00 00 80 6c c8 d0 bf 00 00 00 00 d6 f0 b6 3f
       -0.2622328996658325 0.08961236476898193
000030 00 00 00 00 b2 b1 97 3f 00 00 00 00 90 bc c3 bf
       0.02313879132270813 -0.1541919708251953
000040 00 00 00 00 f4 20 90 3f 00 00 00 40 6b e8 bc bf
       0.0157507061958313 -0.11292143166065216
000050 00 00 00 40 9b 39 d1 bf 00 00 00 80 40 bf c0 bf
       -0.2691410183906555 -0.13083654642105103
000060 00 00 00 40 0a 70 cf 3f 00 00 00 60 98 0d d6 3f
       0.2456066906452179 0.3445797860622406
000070 00 00 00 40 ad 40 c5 3f 00 00 00 40 81 68 c7 bf
       0.16603627800941467 -0.18287673592567444
000080 00 00 00 e0 f9 4f d3 3f 00 00 00 60 1d f7 d5 bf
       0.301756352186203 -0.3432076871395111
000090 00 00 00 80 23 4d b4 3f 00 00 00 00 d5 e7 b8 bf
       0.07930204272270203 -0.09728747606277466
0000a0 00 00 00 80 a9 c5 d2 bf 00 00 00 80 67 53 ba bf
       -0.2933143377304077 -0.10283514857292175
0000b0 00 00 00 e0 f7 79 c6 bf 00 00 00 80 d1 5b b1 bf
       -0.1755971759557724 -0.06780728697776794
0000c0 00 00 00 60 d6 b2 d3 bf 00 00 00 00 31 68 c3 bf
       -0.3077903687953949 -0.151617169380188
0000d0 00 00 00 80 28 75 b1 bf 00 00 00 80 c6 88 d1 bf
       -0.0681939423084259 -0.27397310733795166
0000e0 00 00 00 80 8f 41 bc 3f 00 00 00 00 78 32 a0 3f
       0.11037537455558777 0.03163504600524902
0000f0 00 00 00 00 70 d2 c1 3f 00 00 00 c0 68 85 c7 3f
       0.1392345428466797 0.18375882506370544

bias_hh_l0 f8 [32]
000000 00 00 00 00 7e 2f a2 bf 00 00 00 00 3f a0 ad bf
       -0.0355185866355896 -0.057863205671310425
000010 00 00 00 40 0a 90 c3 3f 00 00 00 00 4e ee b9 bf
       0.1528332531452179 -0.10129249095916748
000020 00 00 00 40 81 00 bd bf 00 00 00 e0 cb 83 d6 bf
       -0.11328895390033722 -0.35179421305656433
000030 00 00 00 c0 77 fc c0 3f 00 00 00 80 6f 1b ba bf
       0.1327047049999237 -0.10198113322257996
000040 00 00 00 e0 a3 45 d5 3f 00 00 00 00 d4 5e b6 bf
       0.33237549662590027 -0.08738446235656738
000050 00 00 00 40 12 10 c3 bf 00 00 00 c0 6e 08 bd bf
       -0.1489279568195343 -0.11340992152690887
000060 00 00 00 c0 4d 49 be bf 00 00 00 e0 1f 86 c1 bf
       -0.11830602586269379 -0.13690565526485443
000070 00 00 00 00 b2 ee c4 bf 00 00 00 a0 e4 c2 c7 bf
       -0.16353440284729004 -0.18563516438007355
000080 00 00 00 a0 8c 7b d6 bf 00 00 00 00 d7 9e a7 3f
       -0.35129085183143616 0.046133726835250854
000090 00 00 00 c0 73 60 c9 3f 00 00 00 00 bd e4 aa 3f
       0.1982559859752655 0.052526384592056274
0000a0 00 00 00 a0 32 ef d5 3f 00 00 00 20 20 30 cd bf
       0.342724472284317 -0.22803117334842682
0000b0 00 00 00 c0 fc 1d cc 3f 00 00 00 80 70 80 bf 3f
       0.21966513991355896 0.12305358052253723
0000c0 00 00 00 a0 62 7c d3 3f 00 00 00 00 0d 6f a8 3f
       0.3044668734073639 0.04772225022315979
0000d0 00 00 00 c0 01 0a cc 3f 00 00 00 a0 00 7b d4 3f
       0.2190553843975067 0.32000747323036194
0000e0 00 00 00 00 f7 f7 ac bf 00 00 00 00 d8 03 a5 bf
       -0.05657932162284851 -0.04104495048522949
0000f0 00 00 00 60 3c ea d3 bf 00 00 00 80 a0 1b d3 bf
       -0.31117162108421326 -0.2985612154006958

weight_ih_l0 f8 [32, 1]
000000 00 00 00 00 90 0c a9 bf 00 00 00 20 c4 20 ca bf
       -0.04892396926879883 -0.20412494242191315
000010 00 00 00 c0 37 fd cd 3f 00 00 00 40 05 9d ca 3f
       0.23429009318351746 0.20791688561439514
000020 00 00 00 c0 03 1c c9 bf 00 00 00 c0 9c e1 c3 3f
       -0.19616743922233582 0.15532264113426208
000030 00 00 00 20 87 00 d0 3f 00 00 00 c0 33 d8 c3 3f
       0.2500322163105011 0.15503546595573425
000040 00 00 00 60 a9 3b c7 bf 00 00 00 c0 aa b6 c5 bf
       -0.18150822818279266 -0.1696370542049408
000050 00 00 00 00 88 05 a4 3f 00 00 00 40 d1 1b c9 3f
       0.03910470008850098 0.1961614191532135
000060 00 00 00 80 1e 89 b8 bf 00 00 00 00 0a f9 9e bf
       -0.09584227204322815 -0.030246883630752563
000070 00 00 00 40 51 34 bf bf 00 00 00 00 fe d3 a3 bf
       -0.121892049908638 -0.038726747035980225
000080 00 00 00 e0 80 f5 d3 3f 00 00 00 00 7c cf 95 bf
       0.3118593394756317 -0.021299302577972412
000090 00 00 00 00 9f 59 ab bf 00 00 00 40 b5 5f d0 bf
       -0.053418129682540894 -0.25584155321121216
0000a0 00 00 00 c0 52 62 d3 bf 00 00 00 a0 50 98 d2 3f
       -0.30287617444992065 0.29054656624794006
0000b0 00 00 00 00 18 a4 a9 3f 00 00 00 80 0f 91 b3 3f
       0.050080060958862305 0.07643219828605652
0000c0 00 00 00 e0 a5 ab d4 3f 00 00 00 80 57 78 b5 3f
       0.32297655940055847 0.08386752009391785
0000d0 00 00 00 40 8e 4d c2 3f 00 00 00 40 10 83 d5 bf
       0.1429918110370636 -0.3361244797706604
0000e0 00 00 00 40 d0 a8 c5 bf 00 00 00 00 e8 87 82 bf
       -0.16921427845954895 -0.009048283100128174
0000f0 00 00 00 a0 a4 f2 d5 3f 00 00 00 00 76 e2 a7 bf
       0.3429347574710846 -0.04664963483810425

weight_hh_l0 f8 [32, 8]
000000 00 00 00 c0 2b 91 d6 bf 00 00 00 e0 3c e6 d2 3f
       -0.3526105284690857 0.2953025996685028
000010 00 00 00 a0 a6 17 d0 bf 00 00 00 c0 1d 73 c5 3f
       -0.2514435350894928 0.16757556796073914
000020 00 00 00 40 8b c9 c2 3f 00 00 00 60 33 23 c9 bf
       0.14677563309669495 -0.19638673961162567
000030 00 00 00 80 b5 8f b5 3f 00 00 00 c0 be 28 c7 3f
       0.08422407507896423 0.1809309422969818
000040 00 00 00 40 14 9f bc bf 00 00 00 40 0e 3f ce 3f
       -0.1118023544549942 0.2362993061542511
000050 00 00 00 00 43 43 ba 3f 00 00 00 00 9a d3 aa bf
       0.10258883237838745 -0.052395641803741455
000060 00 00 00 a0 1c 68 d4 bf 00 00 00 60 99 d4 d0 bf
       -0.3188544809818268 -0.2629760205745697
000070 00 00 00 c0 05 01 d2 bf 00 00 00 00 ec 72 89 bf
       -0.28131240606307983 -0.012426227331161499
000080 00 00 00 80 5a f2 b0 3f 00 00 00 40 36 4d c9 3f
       0.06619802117347717 0.19766882061958313
000090 00 00 00 80 84 fa b2 3f 00 00 00 00 0b 32 a0 bf
       0.07413509488105774 -0.031631797552108765
0000a0 00 00 00 c0 8c a0 c5 3f 00 00 00 c0 f4 36 c8 3f
       0.16896209120750427 0.18917712569236755
0000b0 00 00 00 60 28 f8 d0 3f 00 00 00 20 ac e3 c6 bf
       0.2651463449001312 -0.17882300913333893
0000c0 00 00 00 c0 2d 07 cf 3f 00 00 00 00 3c fd bc 3f
       0.24240657687187195 0.11323904991149902
0000d0 00 00 00 a0 85 40 d6 bf 00 00 00 40 82 6a d3 bf
       -0.34768810868263245 -0.303375780582428
0000e0 00 00 00 60 33 84 d0 bf 00 00 00 00 4d 20 c0 bf
       -0.25806888937950134 -0.1259857416152954
0000f0 00 00 00 00 ca 49 a4 bf 00 00 00 00 d6 bd b2 bf
       -0.039625465869903564 -0.07320916652679443
000100 00 00 00 c0 54 7f cd bf 00 00 00 c0 ae f6 c5 bf
       -0.23044833540916443 -0.171590656042099
000110 00 00 00 80 25 bd c3 bf 00 00 00 80 33 ae b3 bf
       -0.15420979261398315 -0.07687684893608093
000120 00 00 00 60 fa 62 d4 3f 00 00 00 00 69 35 ce bf
       0.31854113936424255 -0.23600494861602783
000130 00 00 00 40 ea f7 c2 3f 00 00 00 c0 bd 3b c0 bf
       0.14819076657295227 -0.12682315707206726
000140 00 00 00 c0 55 8b c0 bf 00 00 00 80 c3 f2 d3 bf
       -0.12925216555595398 -0.31169211864471436
000150 00 00 00 20 de b6 d3 bf 00 00 00 a0 0c f4 d4 3f
       -0.30803635716438293 0.32739558815956116
000160 00 00 00 00 ec bd c1 3f 00 00 00 40 f5 6b c9 bf
       0.13860845565795898 -0.19860711693763733
000170 00 00 00 00 f8 49 74 3f 00 00 00 e0 6b 55 d0 bf
       0.004953354597091675 -0.2552137076854706
000180 00 00 00 c0 17 fa c7 bf 00 00 00 c0 ed 26 c5 3f
       -0.18731972575187683 0.1652505099773407
000190 00 00 00 40 b1 22 c9 bf 00 00 00 00 e2 96 bb 3f
       -0.19637122750282288 0.10777103900909424
0001a0 00 00 00 20 c5 5f d0 3f 00 00 00 00 20 69 8f 3f
       0.2558453381061554 0.015337228775024414
0001b0 00 00 00 40 da 52 cb 3f 00 00 00 00 9d 7f bc 3f
       0.21346595883369446 0.11132222414016724
0001c0 00 00 00 00 c1 38 ac 3f 00 00 00 80 3b ce c6 bf
       0.055120497941970825 -0.17816871404647827
0001d0 00 00 00 c0 0e 45 c4 bf 00 00 00 c0 85 16 c6 3f
       -0.15835747122764587 0.17256233096122742
0001e0 00 00 00 a0 80 cd d2 bf 00 00 00 40 ba 2c cc 3f
       -0.29379287362098694 0.22011497616767883
0001f0 00 00 00 00 3d 0c ab 3f 00 00 00 00 f0 ed b1 bf
       0.05282774567604065 -0.0700368881225586
000200 00 00 00 00 6c 14 af 3f 00 00 00 00 67 0b b3 3f
       0.06070268154144287 0.07439273595809937
000210 00 00 00 40 83 0d cf 3f 00 00 00 00 d8 22 87 bf
       0.24259987473487854 -0.01129692792892456
000220 00 00 00 00 2a de b6 3f 00 00 00 40 ff b1 cd bf
       0.08932745456695557 -0.23199453949928284
000230 00 00 00 e0 b2 ae d5 3f 00 00 00 60 e9 54 d4 bf
       0.3387877643108368 -0.3176825940608978
000240 00 00 00 00 b1 ae d4 bf 00 00 00 c0 9c d8 d5 bf
       -0.323162317276001 -0.34134596586227417
000250 00 00 00 c0 55 3b c0 bf 00 00 00 80 af cb c5 bf
       -0.12681075930595398 -0.17027848958969116
000260 00 00 00 00 27 37 a2 3f 00 00 00 80 f1 d7 b1 bf
       0.03557702898979187 -0.06970128417015076
000270 00 00 00 e0 31 8e c0 bf 00 00 00 00 00 6f 27 3f
       -0.12933944165706635 0.00017878413200378418
000280 00 00 00 00 10 62 b8 3f 00 00 00 00 49 de cd bf
       0.0952463150024414 -0.2333461046218872
000290 00 00 00 00 3e 31 bc 3f 00 00 00 00 5f 2e d3 bf
       0.11012637615203857 -0.29970526695251465
0002a0 00 00 00 00 dc fc b1 3f 00 00 00 80 18 57 bd 3f
       0.07026457786560059 0.1146102249622345
0002b0 00 00 00 a0 3b a5 cc bf 00 00 00 60 77 34 d1 3f
       -0.22379250824451447 0.26882728934288025
0002c0 00 00 00 e0 ad 31 d0 3f 00 00 00 00 c5 79 ad bf
       0.2530321776866913 -0.057569652795791626
0002d0 00 00 00 00 64 4a b9 bf 00 00 00 00 50 df 8e bf
       -0.09879136085510254 -0.015074372291564941
0002e0 00 00 00 00 28 a2 be bf 00 00 00 40 00 c9 c0 bf
       -0.11966180801391602 -0.1311340630054474
0002f0 00 00 00 80 37 0b bf bf 00 00 00 80 dd 36 c8 bf
       -0.12126490473747253 -0.1891743540763855
000300 00 00 00 a0 a7 79 d3 3f 00 00 00 60 e2 5d d4 3f
       0.3043002188205719 0.3182302415370941
000310 00 00 00 80 ed 94 b1 3f 00 00 00 80 f3 09 c0 3f
       0.06867870688438416 0.12530368566513062
000320 00 00 00 40 12 96 cf bf 00 00 00 00 d2 e1 a6 3f
       -0.2467673122882843 0.044691622257232666
000330 00 00 00 80 10 fc be 3f 00 00 00 00 21 d7 b1 3f
       0.1210336983203888 0.06968885660171509
000340 00 00 00 80 2b fe bb 3f 00 00 00 a0 56 2c c6 bf
       0.10934707522392273 -0.17322809994220734
000350 00 00 00 e0 55 78 d5 3f 00 00 00 e0 b4 5a d4 bf
       0.33546969294548035 -0.318036288022995
000360 00 00 00 e0 32 c6 d5 bf 00 00 00 00 2f 80 ad bf
       -0.3402220904827118 -0.05761858820915222
000370 00 00 00 00 e5 70 a0 bf 00 00 00 40 8d 76 c7 bf
       -0.03211131691932678 -0.18330541253089905
000380 00 00 00 c0 64 5b cf bf 00 00 00 40 da cf cd 3f
       -0.24497660994529724 0.23290565609931946
000390 00 00 00 00 99 2c a6 bf 00 00 00 e0 e1 7f c2 bf
       -0.04330900311470032 -0.14452765882015228
0003a0 00 00 00 c0 2c b6 c2 bf 00 00 00 20 ac 0c cd bf
       -0.1461845338344574 -0.22694922983646393
0003b0 00 00 00 60 31 eb d4 bf 00 00 00 c0 0c de cb 3f
       -0.32685503363609314 0.21771392226219177
0003c0 00 00 00 00 63 5e be 3f 00 00 00 40 69 42 c7 3f
       0.11862772703170776 0.18171420693397522
0003d0 00 00 00 80 ed c0 b9 3f 00 00 00 e0 7b 78 d6 3f
       0.10060009360313416 0.3511037528514862
0003e0 00 00 00 c0 8e 59 c3 bf 00 00 00 60 88 73 c3 bf
       -0.15117058157920837 -0.1519632786512375
0003f0 00 00 00 c0 a1 eb be bf 00 00 00 a0 ff 26 c5 bf
       -0.12078295648097992 -0.16525264084339142
000400 00 00 00 c0 7f 44 c5 3f 00 00 00 20 b4 15 d2 bf
       0.1661529242992401 -0.28257468342781067
000410 00 00 00 00 d9 4c d2 bf 00 00 00 00 40 6f 5d bf
       -0.28594040870666504 -0.0017965435981750488
000420 00 00 00 c0 b0 17 c5 3f 00 00 00 00 9f 56 a5 3f
       0.1647854745388031 0.041676491498947144
000430 00 00 00 e0 cc 4c d1 3f 00 00 00 c0 3f 4b c9 3f
       0.27031251788139343 0.19760891795158386
000440 00 00 00 20 b6 8f c6 bf 00 00 00 c0 53 bf c8 bf
       -0.17626072466373444 -0.19333884119987488
000450 00 00 00 40 86 c1 cd 3f 00 00 00 a0 fb 92 c4 bf
       0.2324683964252472 -0.16073556244373322
000460 00 00 00 c0 da 85 d1 bf 00 00 00 00 9a 28 9c bf
       -0.27379482984542847 -0.027498632669448853
000470 00 00 00 a0 a0 f7 d4 3f 00 00 00 c0 fb dc cf bf
       0.3276139795780182 -0.2489313781261444
000480 00 00 00 00 ba 1f 9a 3f 00 00 00 40 9f ca c5 bf
       0.02551165223121643 -0.17024603486061096
000490 00 00 00 c0 8c 6d ca 3f 00 00 00 80 ca 56 b4 3f
       0.20646819472312927 0.07944932579994202
0004a0 00 00 00 00 dc 1d b7 3f 00 00 00 00 ba c0 a8 3f
       0.09029936790466309 0.04834538698196411
0004b0 00 00 00 e0 ec bf d1 3f 00 00 00 80 56 06 c0 bf
       0.2773391902446747 -0.12519341707229614
0004c0 00 00 00 00 d0 8b 9a 3f 00 00 00 80 e9 ab b3 bf
       0.025923967361450195 -0.07684192061424255
0004d0 00 00 00 60 16 64 c0 bf 00 00 00 60 0f 3a d2 3f
       -0.1280544251203537 0.2847937047481537
0004e0 00 00 00 40 7e 27 ca 3f 00 00 00 c0 49 8b c8 3f
       0.2043302357196808 0.19175073504447937
0004f0 00 00 00 00 e1 58 a3 3f 00 00 00 00 30 7e be 3f
       0.03778746724128723 0.11911296844482422
000500 00 00 00 00 a0 3f 6a 3f 00 00 00 60 cf ef d1 3f
       0.003204166889190674 0.2802618443965912
000510 00 00 00 80 df b4 be bf 00 00 00 40 ba 68 ce bf
       -0.1199474036693573 -0.23757103085517883
000520 00 00 00 40 a9 7d c9 3f 00 00 00 20 f3 df d4 bf
       0.19914737343788147 -0.32616880536079407
000530 00 00 00 00 90 8d 79 bf 00 00 00 00 b4 70 9a bf
       -0.00623852014541626 -0.025820553302764893
000540 00 00 00 c0 f7 d6 ce 3f 00 00 00 e0 a9 dd d5 bf
       0.2409352958202362 -0.3416542708873749
000550 00 00 00 40 04 4b cc 3f 00 00 00 a0 00 1b ce bf
       0.2210393249988556 -0.23519904911518097
000560 00 00 00 20 2b b5 d5 3f 00 00 00 e0 2b 64 d5 3f
       0.33918264508247375 0.3342389762401581
000570 00 00 00 00 b0 1a 98 3f 00 00 00 40 af 7a d0 bf
       0.023539304733276367 -0.25748807191848755
000580 00 00 00 00 85 9f a6 3f 00 00 00 c0 b0 23 ce 3f
       0.044185787439346313 0.2354641854763031
000590 00 00 00 00 f0 9e 97 3f 00 00 00 60 76 38 d6 3f
       0.023067235946655273 0.34719619154930115
0005a0 00 00 00 60 c4 84 d1 3f 00 00 00 00 a0 9b 79 bf
       0.27372846007347107 -0.006251931190490723
0005b0 00 00 00 00 18 fa bc 3f 00 00 00 a0 38 a8 d4 3f
       0.11319112777709961 0.3227674067020416
0005c0 00 00 00 40 b2 d6 c6 3f 00 00 00 60 32 c7 d0 3f
       0.17842701077461243 0.26215800642967224
0005d0 00 00 00 00 f2 32 a6 bf 00 00 00 a0 ae 2a cf bf
       -0.04335743188858032 -0.2434900552034378
0005e0 00 00 00 00 23 49 ac bf 00 00 00 00 3a 08 ac 3f
       -0.05524548888206482 0.054750263690948486
0005f0 00 00 00 00 30 2d 79 3f 00 00 00 e0 e0 cd d3 3f
       0.006146609783172607 0.30944082140922546
000600 00 00 00 00 87 90 b2 3f 00 00 00 c0 87 22 c1 3f
       0.07251781225204468 0.13386628031730652
000610 00 00 00 60 ff c5 d3 3f 00 00 00 80 56 11 b2 bf
       0.30895981192588806 -0.07057705521583557
000620 00 00 00 40 40 ae cb 3f 00 00 00 c0 be 4e cb 3f
       0.21625521779060364 0.2133406102657318
000630 00 00 00 40 38 ff cc 3f 00 00 00 40 2a 8f d3 bf
       0.22653868794441223 -0.30561310052871704
000640 00 00 00 40 37 0e c4 3f 00 00 00 60 d9 0d d3 bf
       0.15668383240699768 -0.2977202832698822
000650 00 00 00 00 b4 f5 8c 3f 00 00 00 00 c8 ea aa 3f
       0.014140516519546509 0.05257248878479004
000660 00 00 00 00 60 46 9a bf 00 00 00 40 c7 61 c8 3f
       -0.02565908432006836 0.190483957529068
000670 00 00 00 40 bc 82 c2 3f 00 00 00 00 1a ca ae bf
       0.14461472630500793 -0.06013566255569458
000680 00 00 00 80 ae 28 b9 3f 00 00 00 80 79 bb b6 3f
       0.0982770025730133 0.08879813551902771
000690 00 00 00 20 e0 8b d4 3f 00 00 00 40 6c 2e c7 3f
       0.32103732228279114 0.18110421299934387
0006a0 00 00 00 40 2c 83 c9 3f 00 00 00 e0 cd 1d d0 3f
       0.19931557774543762 0.25181910395622253
0006b0 00 00 00 80 ef d2 d1 bf 00 00 00 a0 dc 04 cb bf
       -0.2784994840621948 -0.21108587086200714
0006c0 00 00 00 a0 25 72 d5 3f 00 00 00 a0 13 cd d1 bf
       0.3350919783115387 -0.27814188599586487
0006d0 00 00 00 c0 e6 ff c4 3f 00 00 00 e0 d4 6b d2 3f
       0.16405948996543884 0.28783151507377625
0006e0 00 00 00 00 35 56 be 3f 00 00 00 c0 94 4e d0 bf
       0.1185029149055481 -0.25479620695114136
0006f0 00 00 00 40 ec f0 ca 3f 00 00 00 40 c6 56 bb bf
       0.21047738194465637 -0.10679282248020172
000700 00 00 00 c0 3c c5 c4 bf 00 00 00 80 02 34 b2 bf
       -0.1622692048549652 -0.07110610604286194
000710 00 00 00 00 12 43 9a 3f 00 00 00 c0 06 22 bc bf
       0.025646477937698364 -0.10989420115947723
000720 00 00 00 80 da ab bb bf 00 00 00 40 20 84 c1 bf
       -0.10809102654457092 -0.136844664812088
000730 00 00 00 00 65 47 d1 bf 00 00 00 40 ba 48 ce 3f
       -0.26998257637023926 0.23659446835517883
000740 00 00 00 00 03 8a a0 bf 00 00 00 e0 70 3c d2 3f
       -0.03230294585227966 0.2849390208721161
000750 00 00 00 a0 62 37 d4 3f 00 00 00 00 d8 99 95 3f
       0.3158804476261139 0.021094679832458496
000760 00 00 00 60 1d 3e d0 3f 00 00 00 e0 34 d7 c5 bf
       0.2537911832332611 -0.17063008248806
000770 00 00 00 c0 ab de c2 3f 00 00 00 00 07 73 b5 bf
       0.14742037653923035 -0.08378642797470093
000780 00 00 00 00 ea b4 a6 3f 00 00 00 00 2c d3 9d 3f
       0.04434901475906372 0.029125869274139404
000790 00 00 00 60 3e c0 d3 3f 00 00 00 80 81 d7 b8 bf
       0.30860862135887146 -0.09703835844993591
0007a0 00 00 00 00 b0 c3 6e 3f 00 00 00 c0 82 ff c4 3f
       0.003755420446395874 0.16404756903648376
0007b0 00 00 00 a0 18 2b d6 bf 00 00 00 c0 ce 2f c9 3f
       -0.3463803827762604 0.19677147269248962
0007c0 00 00 00 e0 27 9f d4 3f 00 00 00 00 f8 5a a0 3f
       0.3222140967845917 0.03194403648376465
0007d0 00 00 00 00 90 44 9c bf 00 00 00 80 44 4a c1 3f
       -0.027605295181274414 0.13507896661758423
0007e0 00 00 00 20 df 95 d2 3f 00 00 00 00 b0 8c cd bf
       0.29039743542671204 -0.23085594177246094
0007f0 00 00 00 80 4f ec cf bf 00 00 00 20 fa 5d d2 3f
       -0.2493991255760193 0.2869859039783478

bias_ih_l0 f8 [32]
000000 00 00 00 40 f8 b1 c6 3f 00 00 00 a0 18 eb d5 3f
       0.17730620503425598 0.3424741327762604
000010 00 00 00 00 5a e9 b4 3f 00 00 00 80 81 1b b7 bf
       0.08168566226959229 -0.09026345610618591
000020 00 00 00 00 72 5e a7 3f 00 00 00 00 b2 b7 90 3f
       0.0456424355506897 0.01632574200630188
000030 00 00 00 60 84 1c d5 bf 00 00 00 40 3c fe bf bf
       -0.32986554503440857 -0.12497307360172272
000040 00 00 00 c0 20 0b c7 bf 00 00 00 c0 0d 1b c9 bf
       -0.1800270974636078 -0.19613811373710632
000050 00 00 00 80 fb 6c ce bf 00 00 00 60 16 23 d1 3f
       -0.23770087957382202 0.2677665650844574
000060 00 00 00 00 80 fc ac 3f 00 00 00 00 44 03 90 3f
       0.056613922119140625 0.015637457370758057
000070 00 00 00 20 38 17 d3 3f 00 00 00 40 80 37 c4 bf
       0.2982921898365021 -0.1579437553882599
000080 00 00 00 00 4f 4d af bf 00 00 00 40 aa 77 ca 3f
       -0.06113669276237488 0.20677688717842102
000090 00 00 00 a0 e9 a2 d1 3f 00 00 00 20 0f 43 c9 bf
       0.2755683958530426 -0.19735898077487946
0000a0 00 00 00 00 4a e1 9c 3f 00 00 00 00 8e 68 90 bf
       0.02820315957069397 -0.016023844480514526
0000b0 00 00 00 60 7b 45 d2 3f 00 00 00 40 f9 78 c8 3f
       0.28549084067344666 0.19119182229042053
0000c0 00 00 00 e0 43 c9 d5 3f 00 00 00 80 09 b5 b2 3f
       0.3404092490673065 0.07307490706443787
0000d0 00 00 00 20 bd a0 d4 3f 00 00 00 40 9f 64 cc 3f
       0.3223107159137726 0.22182074189186096
0000e0 00 00 00 00 c0 0a 87 bf 00 00 00 c0 db d5 c2 3f
       -0.011250972747802734 0.14715144038200378
0000f0 00 00 00 40 26 e7 cc 3f 00 00 00 40 07 39 c6 3f
       0.22580412030220032 0.17361536622047424

bias_hh_l0 f8 [32]
000000 00 00 00 00 46 88 b5 bf 00 00 00 00 d0 2b a7 3f
       -0.08411061763763428 0.04525613784790039
000010 00 00 00 80 a6 26 b2 3f 00 00 00 c0 05 0f cd 3f
       0.0709022581577301 0.22702094912528992
000020 00 00 00 40 79 6c c7 3f 00 00 00 a0 73 19 d0 3f
       0.18299785256385803 0.2515534460544586
000030 00 00 00 40 3f 13 ce 3f 00 00 00 00 e9 fb b9 3f
       0.2349623739719391 0.10150009393692017
000040 00 00 00 40 70 0f cf 3f 00 00 00 00 78 42 7c bf
       0.24265864491462708 -0.006899327039718628
000050 00 00 00 40 cb 70 c7 bf 00 00 00 60 2a 19 d0 3f
       -0.1831296980381012 0.25153598189353943
000060 00 00 00 80 6e 71 ca bf 00 00 00 00 4a 81 ca bf
       -0.20658665895462036 -0.20707058906555176
000070 00 00 00 c0 ac 3c ce 3f 00 00 00 00 ea 9e c0 3f
       0.2362266480922699 0.12984967231750488
000080 00 00 00 c0 f1 b2 ca 3f 00 00 00 40 24 a3 cb bf
       0.2085859477519989 -0.21591618657112122
000090 00 00 00 60 6c 8b d2 3f 00 00 00 a0 63 2e d1 3f
       0.28975972533226013 0.268456369638443
0000a0 00 00 00 a0 b7 64 cf bf 00 00 00 c0 33 85 c4 3f
       -0.24526114761829376 0.16031500697135925
0000b0 00 00 00 00 e2 47 92 3f 00 00 00 00 38 d0 a3 3f
       0.017852336168289185 0.03869795799255371
0000c0 00 00 00 00 13 64 c1 3f 00 00 00 80 de b7 bf 3f
       0.13586652278900146 0.12389937043190002
0000d0 00 00 00 00 c1 49 bb bf 00 00 00 60 09 30 c5 bf
       -0.10659414529800415 -0.16552846133708954
0000e0 00 00 00 00 00 23 59 3f 00 00 00 40 ce b0 d4 bf
       0.0015342235565185547 -0.3232913613319397
0000f0 00 00 00 00 5c 70 92 bf 00 00 00 00 44 48 b7 3f
       -0.018006742000579834 0.09094643592834473

weight_ih_l0 f8 [32, 1]
000000 d3 aa da 1a e9 e1 e6 3f 86 b2 a7 7c 21 47 ed 3f
       0.7150769733901491 0.9149329600018781
000010 de 9c 63 2e 33 76 e5 3f 28 5c 9a 07 af 4d ea bf
       0.6706787019765235 -0.8219828747268183
000020 37 2c 21 ef e0 be e5 3f f8 71 a1 01 fe a9 e3 3f
       0.6795506163119914 0.6145010024879971
000030 da e5 60 10 fe d4 c4 3f 39 d6 01 4b db fa e1 bf
       0.16275001334888267 -0.5618721451743972
000040 a9 74 b2 3e e0 0e eb 3f a5 2a 52 1b dd b4 ea 3f
       0.8455659126808729 0.8345780881512225
000050 4a 36 61 7f e3 fd e4 3f 45 9e 9f d2 dc 1e ed bf
       0.6559922683606569 -0.9100174058666616
000060 80 20 14 fa bd 14 da 3f 54 bb 17 00 39 62 e2 3f
       0.4075159971403153 0.5744900705156888
000070 8f c0 93 1a e4 5c d7 3f 6e 4b b0 84 83 42 e1 bf
       0.3650446185629414 -0.5393693534445967
000080 11 b9 03 7a 85 20 ea bf 22 28 f7 f6 0e 1f e3 3f
       -0.816469896611837 0.5975413154167237
000090 4b a4 fe 63 e6 8c e9 3f 94 55 d6 f1 f3 2e df 3f
       0.7984497025510192 0.48724077813070577
0000a0 38 75 d6 0e f5 75 e1 bf dd ce 38 f4 34 8d ec bf
       -0.5456490793036783 -0.892237164493476
0000b0 64 87 f2 5d 8d 74 e9 bf 00 1e c6 9a 0f 4f e1 3f
       -0.7954775652799353 0.5409009955337183
0000c0 54 d5 c4 a7 74 85 e6 3f bd 58 7a cf 13 65 e0 3f
       0.7037909771667423 0.5123385479262407
0000d0 ba 89 78 ff 4f a5 f1 3f ef dd 32 67 28 c8 f0 bf
       1.1028594950990809 -1.0488666564177682
0000e0 74 23 3f 7c ac c1 d1 3f e0 98 3c bc 2e 21 e7 3f
       0.2774459088655512 0.7228006054399678
0000f0 39 91 a9 2e 67 38 d5 3f 7a 8b 2b e3 53 04 e7 bf
       0.33156756932136805 -0.7192782818714101
